###Starting script###
torch version: 0.4.0
Number CUDA Devices: 1
batch size: 1024
epochs: 100
Model(
  (h1): Linear(in_features=1453, out_features=512, bias=True)
  (z): Linear(in_features=512, out_features=128, bias=True)
  (h2): Linear(in_features=128, out_features=512, bias=True)
  (h3): Linear(in_features=512, out_features=1400, bias=True)
)
1594360
{'dropout_p': 0.1, 'learning_rate': 0.0003, 'weight_init': <function orthogonal_ at 0x7f61f7e99d08>, 'hidden_size1': 512, 'hidden_size2': 256, 'z_size': 128}
Epoch: 0
train loss: 3.0628876498211985
valiation loss: 1.5132407583767855
###Starting script###
torch version: 0.4.0
Number CUDA Devices: 1
batch size: 1024
epochs: 100
Model(
  (h1): Linear(in_features=1453, out_features=512, bias=True)
  (z): Linear(in_features=512, out_features=128, bias=True)
  (h2): Linear(in_features=128, out_features=512, bias=True)
  (h3): Linear(in_features=512, out_features=1400, bias=True)
)
1594360
{'dropout_p': 0.1, 'learning_rate': 0.0003, 'weight_init': <function orthogonal_ at 0x7fe09b853d08>, 'hidden_size1': 512, 'hidden_size2': 256, 'z_size': 128}
Epoch: 0
train loss: 2.9982806709797485
valiation loss: 1.5061195402205745
###Starting script###
torch version: 0.4.0
Number CUDA Devices: 1
batch size: 1024
epochs: 100
Model(
  (h1): Linear(in_features=1453, out_features=512, bias=True)
  (z): Linear(in_features=512, out_features=128, bias=True)
  (h2): Linear(in_features=128, out_features=512, bias=True)
  (h3): Linear(in_features=512, out_features=1400, bias=True)
)
1594360
{'dropout_p': 0.1, 'learning_rate': 0.0003, 'weight_init': <function orthogonal_ at 0x7f66fad79d08>, 'hidden_size1': 512, 'hidden_size2': 256, 'z_size': 128}
Epoch: 0
train loss: 3.013148658517478
valiation loss: 1.5240732529495336
###Starting script###
torch version: 0.4.0
Number CUDA Devices: 1
batch size: 1024
epochs: 100
Model(
  (h1): Linear(in_features=1453, out_features=512, bias=True)
  (z): Linear(in_features=512, out_features=128, bias=True)
  (h2): Linear(in_features=128, out_features=512, bias=True)
  (h3): Linear(in_features=512, out_features=1400, bias=True)
)
1594360
{'dropout_p': 0.1, 'learning_rate': 0.0003, 'weight_init': <function orthogonal_ at 0x7faa0db78d08>, 'hidden_size1': 512, 'hidden_size2': 256, 'z_size': 128}
Epoch: 0
train loss: 1.1263128268006055
valiation loss: 0.4842273879026059
Epoch: 1
train loss: 0.8184967420428343
valiation loss: 0.4530850424969624
Epoch: 2
train loss: 0.745995054723344
…
