###Starting script###
torch version: 0.4.0
Number CUDA Devices: 1
batch size: 1024
epochs: 20
Model(
  (h1): Linear(in_features=1453, out_features=512, bias=True)
  (h2): Linear(in_features=512, out_features=256, bias=True)
  (z): Linear(in_features=256, out_features=128, bias=True)
  (h4): Linear(in_features=128, out_features=256, bias=True)
  (h5): Linear(in_features=256, out_features=512, bias=True)
  (h6): Linear(in_features=512, out_features=1400, bias=True)
)
1791480
{'dropout_p': 0.1, 'learning_rate': 0.0003, 'weight_init': <function orthogonal_ at 0x7f526748fd08>, 'hidden_size1': 512, 'hidden_size2': 256, 'z_size': 128}
Epoch: 0
train loss: 1.2573057073775842
valiation loss: 0.5706808572705788
Epoch: 1
train loss: 1.0353442482326343
valiation loss: 0.5259999583714999
Epoch: 2
train loss: 0.974067598041417
…
train loss: 0.8593183121495489
valiation loss: 0.48553946361983125
Epoch: 8
train loss: 0.8451585103555218
valiation loss: 0.48305971617122745
Epoch: 9
train loss: 0.8322790127814464
valiation loss: 0.4785737348681135
Epoch: 10
train loss: 0.8225909184556508
valiation loss: 0.4763023730540326
Epoch: 11
train loss: 0.8123929936411804
valiation loss: 0.4748677292815115
Epoch: 12
train loss: 0.8046899310218684
valiation loss: 0.46979866918757995
Epoch: 13
train loss: 0.795546222532141
valiation loss: 0.46629379655112696
###Starting script###
torch version: 0.4.0
Number CUDA Devices: 1
batch size: 1024
epochs: 20
Model(
  (h1): Linear(in_features=1453, out_features=512, bias=True)
  (h2): Linear(in_features=512, out_features=256, bias=True)
  (z): Linear(in_features=256, out_features=256, bias=True)
  (h4): Linear(in_features=256, out_features=256, bias=True)
  (h5): Linear(in_features=256, out_features=512, bias=True)
  (h6): Linear(in_features=512, out_features=1400, bias=True)
)
1857144
{'dropout_p': 0.1, 'learning_rate': 0.0003, 'weight_init': <function orthogonal_ at 0x7fe7e72e5d08>, 'hidden_size1': 512, 'hidden_size2': 256, 'z_size': 256}
Epoch: 0
train loss: 1.2617734244930139
valiation loss: 0.5724589798583763
Epoch: 1
train loss: 1.014485546833147
valiation loss: 0.5199728841708682
Epoch: 2
train loss: 0.9513269883000116
…
